logs/T100_b64_adam_lr0.001/checkpoint_latest.pth (torch, 97089 bytes, 3 tensors)

layer.1.weight f4 [10, 784]
0	0xbae35f60	-0.001734715
1	0xbc5f79b8	-0.01363986
2	0x3c8361d7	0.016037865
3	0xbc0c1a2a	-0.00855116
4	0x3c8c6588	0.017138258
5	0xbcee4818	-0.029087111
6	0x3d0668ff	0.032814976
7	0x3be32c8b	0.0069328
8	0x3cba8668	0.022769168
9	0x3cf13992	0.029446397
10	0x3d0f0b9f	0.034923192
11	0x3ccaae16	0.024741214
12	0x3bcf55f8	0.006327387
13	0xbc4db486	-0.012555247
14	0xbd098c5a	-0.033581115
15	0xbc99c2a7	-0.018769575
16	0xbc4a3278	-0.012341134
17	0x3cd49b2a	0.025952894
18	0x3c8a2524	0.016863413
19	0xbbd739f8	-0.0065681897
20	0x3c7d9100	0.015476465
21	0x3cc6fd12	0.024290595
22	0x3b777200	0.0037757158
23	0x3ca5311a	0.020165015
24	0x3d0a50c5	0.033768434
25	0xbc9bbeac	-0.019011818
26	0x3c838950	0.016056687
27	0x3ce9128e	0.02845123
28	0x3d065301	0.032794002
29	0x3b7cc490	0.0038569309
30	0xbc9f88ce	-0.019474413
31	0x3c84eade	0.016225275
32	0xbca97445	-0.020685324
33	0xba52a000	-0.0008034706
34	0xbc8968b5	-0.016773561
35	0x3c833bde	0.016019758
36	0x3c16fc64	0.009215448
37	0xbd00e2a3	-0.031466138
38	0x3c8a9e0d	0.016921068
39	0xbc719e3e	-0.0147472005
40	0x3cdbfb5a	0.026853252
41	0x3cbedf85	0.023299942
42	0xbcf772ef	-0.030206172
43	0xbcfc3329	-0.030786114
44	0x3c16c516	0.009202262
45	0x3bf9cd5e	0.0076233586
46	0xbc31c28e	-0.010849608
47	0xbb516c70	-0.0031955503
48	0x3be7dde0	0.00707601
49	0xbc6d9180	-0.014500022
50	0x3adbff00	0.001678437
51	0x3ce20c1a	0.027593661
52	0x3b1f8c20	0.0024344996
53	0x3c87eb1e	0.016591605
54	0x3c9f99c8	0.019482508
55	0xbca1b786	-0.019740831
56	0x3bade300	0.0053066015
57	0xbcd8a0c3	-0.026443845
58	0xbd0fcfe8	-0.035110384
59	0xbb6317b5	-0.0034651582
60	0x3d60ed22	0.054913647
61	0xbbc684d3	-0.0060583143
62	0xbc4d418f	-0.012527837
63	0xbcb6a4ce	-0.022295382
64	0xbcd5d1b4	-0.02610097
65	0xbd278b7a	-0.0409045
66	0xbd640682	-0.05567027
67	0xbd7035ae	-0.058644943
68	0xbd5faef3	-0.054610204
69	0xbdbdc9fd	-0.09267042
70	0xbdc95c4b	-0.098320566
71	0xbe0ed669	-0.13948978
72	0xbe10d6a1	-0.14144374
73	0xbe17ce3b	-0.14824764
74	0xbdd200e5	-0.10254077
75	0xbd99acc6	-0.07503657
76	0xbdad24f8	-0.08454317
77	0xbd4fc581	-0.050725464
78	0xbd99c3e3	-0.075080656
79	0xbcb2e25e	-0.021836456
80	0xbd2b473e	-0.04181599
81	0xbca9dffa	-0.020736683
82	0xbce04c88	-0.027380243
83	0x3b222420	0.002474077
84	0x3cc2ef2e	0.02379569
85	0xbcdc6b90	-0.026906759
86	0xbb0740e0	-0.0020638034
87	0x3ce6aa47	0.028157366
88	0xbba33dd4	-0.0049817357
89	0xbc89beec	-0.016814671
90	0xbd961375	-0.0732793
91	0xbc5b402b	-0.013381998
92	0xbd2be459	-0.041965816
93	0xbdbc044e	-0.091805086
94	0xbd6ebc8b	-0.058285277
95	0xbcebe338	-0.02879487
96	0xbd47a8d3	-0.048744988
97	0xbd189adb	-0.037257057
98	0xbdad24bd	-0.08454273
99	0xbd8af8e0	-0.067857504
100	0xbd2b8523	-0.041875016
101	0xbd76fb1d	-0.060298074
102	0xbe064a3e	-0.13114259
103	0xbdf24304	-0.118291885
104	0xbdca88fd	-0.0988941
105	0xbde13d6d	-0.10998044
106	0xbd855ef2	-0.0651225
107	0xbd7426e2	-0.059607394
108	0x3b101627	0.002198586
109	0x3c40a501	0.01175809
110	0x3c1800e0	0.009277552
111	0xbc47fc1c	-0.012206104
112	0x3d03cb37	0.032176223
113	0xbd07ca7c	-0.03315209
114	0xbd031774	-0.03200479
115	0xbd8ac037	-0.06774943
116	0xbd37756c	-0.044789717
117	0xbdac7086	-0.084199
118	0xbd9fdb00	-0.07805443
119	0xbd268d85	-0.040662307
120	0xbd840b4f	-0.064474694
121	0xbbf95b82	-0.0076097855
122	0xbd6e5888	-0.0581899
123	0xbc9455d3	-0.01810733
124	0xbd2b53f5	-0.041828115
125	0x3ce28f0c	0.0276561
126	0x3c435e81	0.011924387
127	0x3c22abc4	0.009928647
128	0x3aa8d81d	0.001288179
129	0xbcf40b0a	-0.02979042
130	0xba042287	-0.00050405454
131	0xbc670029	-0.014099159
132	0xbc97d357	-0.018533392
133	0xbcb75c27	-0.022382809
134	0xbbf27262	-0.0073988894
135	0xbcfaa9eb	-0.030598601
136	0xbdc471f4	-0.09592047
137	0xbd990045	-0.074707545
138	0xbd4f6fec	-0.050643846
139	0x3cdc917e	0.026924845
140	0x3d09a60f	0.03360563
141	0x3ca7b4ea	0.020472009
142	0xbc909e77	-0.017653687
143	0x3c23b585	0.009992008
144	0xbce973bd	-0.028497571
145	0xbe01b435	-0.126664
146	0xbd666723	-0.056250703
147	0xbda19f50	-0.078917146
148	0xbd6dce77	-0.05805823
149	0xbd911bb3	-0.07085361
150	0x3aa79bb1	0.0012787489
151	0xbc2553de	-0.010090796
152	0xbc653065	-0.013988589
153	0x3d200a89	0.039072547
154	0x3ce524c5	0.027971635
155	0x3d258bc1	0.040416483
156	0x3d533565	0.051564593
157	0x3d2060f0	0.039154947
158	0x3aae3f32	0.001329398
159	0xb9e924e0	-0.00044468697
160	0x3aab20ed	0.0013056077
161	0x3b651f39	0.0034961237
162	0xbcb9777e	-0.022639986
163	0xbd749f85	-0.059722442
164	0xbdcb64fa	-0.09931369
165	0xbdeb6ccf	-0.11495363
166	0xbdbb8aa4	-0.09157303
167	0xbcbfe5c3	-0.023424989
168	0x3b8a5aa8	0.004222233
169	0x3d08b781	0.033378128
170	0xbb287a64	-0.0025707716
171	0xbcbf9942	-0.023388509
172	0xbd0f3839	-0.034965727
173	0xbc97a43b	-0.018510928
174	0xbcbc8cba	-0.023016322
175	0xbcebe8c3	-0.028797513
176	0xbd87df5a	-0.06634398
177	0xbd7aa25c	-0.061189994
178	0xbd6b7e31	-0.057493392
179	0xbc976831	-0.0184823
180	0x3b9d68a2	0.004803733
181	0x3c659178	0.014011733
182	0x3cd886ae	0.026431408
183	0x3cbfbf8f	0.023406772
184	0x3cc1bb45	0.023648867
185	0x3d886699	0.06660194
186	0x3ccb537d	0.024820084
187	0x3c3c598b	0.011495958
188	0x3c16d540	0.009206116
189	0x3d1f6e6c	0.038923666
190	0xbca590a5	-0.020210573
191	0xbc289d6a	-0.010291437
192	0xbd5332c7	-0.051562097
193	0xbdfd6589	-0.12372882
194	0xbcc47b1b	-0.023984483
195	0xbc16dd40	-0.009208024
196	0xbc580aaa	-0.013186136
197	0xbc5f5c4f	-0.013632848
198	0xbd376aa2	-0.044779427
199	0xbd650351	-0.055911366
200	0xbd6e70ea	-0.058213152
201	0xbce34ae8	-0.027745679
202	0xbbb7b8ad	-0.005606732
203	0xbcf4f1ba	-0.02990042
204	0xbcad501d	-0.021156365
205	0x3c024713	0.007951516
206	0x3c025dd4	0.007956941
207	0xbb82b980	-0.0039893985
208	0x3ca3cabd	0.019994134
209	0x3c9fd931	0.019512745
210	0x3af79abd	0.001889072
211	0x3c132d8d	0.008983028
212	0x3d8088ff	0.0627613
213	0x3d90bebd	0.070676304
214	0x3d8d3e77	0.0689668
215	0x3d3a5d66	0.045499228
216	0x3c87c29f	0.016572295
217	0x3b2ee6d8	0.0026687887
218	0xbb688f33	-0.0035485744
219	0xbcd2a4f0	-0.025713414
220	0xbda31dab	-0.07964643
221	0xbe0d7e0a	-0.13817611
222	0xbdd011f3	-0.101596735
223	0x3cd03a0e	0.025418308
224	0x3cc0ea4c	0.023549221
225	0xbd19aa83	-0.03751613
226	0x3cbf2a2d	0.02333554
227	0x3c580148	0.013183899
228	0xbda489a4	-0.08034065
229	0xbd52896f	-0.0514006
230	0x3c0c7c6d	0.008574587
231	0xbd82b1e4	-0.06381586
232	0xbd57ba95	-0.052668173
233	0xbcbaf6aa	-0.022822697
234	0xbca1caeb	-0.01975008
235	0x3a1b5304	0.0005925151
236	0xbca83b53	-0.0205361
237	0xbbff67cf	-0.0077943574
238	0x3cabc739	0.02096902
239	0x3d1e71df	0.038682815
240	0x3d887b42	0.066641346
241	0x3d7f2629	0.06229225
242	0x3d104397	0.03522071
243	0x3d17e5cf	0.037084397
244	0x3d149a85	0.036280174
245	0xbbe6a78c	-0.007039016
246	0x3b8c81b1	0.0042879214
247	0x3d155fd4	0.036468342
248	0xbd9c1a10	-0.076221585
249	0xbe0762bb	-0.13221256
250	0xbd86b9d3	-0.06578412
251	0xbc276427	-0.010216749
252	0x3c2a2ed8	0.010387145
253	0x3c86ebba	0.016469825
254	0x3c8d0886	0.017215978
255	0xbd263e8c	-0.040586993

exp_avg f4 [10, 784]
0	0x00000000	0.0
1	0x00000000	0.0
2	0x00000004	6e-45
3	0x00000000	0.0
4	0x00000000	0.0
5	0x00000000	0.0
6	0x00000000	0.0
7	0x00000004	6e-45
8	0x00000000	0.0
9	0x00000000	0.0
10	0x00000000	0.0
11	0x00000000	0.0
12	0x00000000	0.0
13	0x00000000	0.0
14	0x00000000	0.0
15	0x00000000	0.0
16	0x00000000	0.0
17	0x00000000	0.0
18	0x00000000	0.0
19	0x00000000	0.0
20	0x00000000	0.0
21	0x00000000	0.0
22	0x00000000	0.0
23	0x00000000	0.0
24	0x00000000	0.0
25	0x00000000	0.0
26	0x00000000	0.0
27	0x00000000	0.0
28	0x00000000	0.0
29	0x00000000	0.0
30	0x00000000	0.0
31	0x00000000	0.0
32	0x00000000	0.0
33	0x00000000	0.0
34	0x00000000	0.0
35	0x00000000	0.0
36	0x00000000	0.0
37	0x05a5e5ed	1.5600987e-35
38	0x11b4dd6c	2.8535454e-28
39	0x1395917a	3.775634e-27
40	0x13125efa	1.8474618e-27
41	0x0a39fea9	8.955322e-33
42	0x0adc9499	2.1241126e-32
43	0x9f8d78de	-5.991578e-20
44	0xa07f74d4	-2.1637995e-19
45	0x9fc70b34	-8.429831e-20
46	0x00000000	0.0
47	0x00000000	0.0
48	0x00000000	0.0
49	0x00000000	0.0
50	0x00000000	0.0
51	0x00000000	0.0
52	0x00000000	0.0
53	0x00000000	0.0
54	0x00000000	0.0
55	0x000205ad	1.85707e-40
56	0x00000000	0.0
57	0x00000000	0.0
58	0x00000000	0.0
59	0xb24d5fc4	-1.1954345e-08
60	0xaf872be9	-2.4587557e-10
61	0x24049221	2.8746713e-17
62	0x2529933c	1.4708298e-16
63	0x24d24d09	9.1203485e-17
64	0xa197e0d9	-1.0291675e-18
65	0x2709b1b6	1.9108907e-15
66	0x2814e4f3	8.265296e-15
67	0x2814e0f6	8.264431e-15
68	0x34097b75	1.2804033e-07
69	0x356d3363	8.836416e-07
70	0x35c3f7de	1.4600771e-06
71	0xb6841424	-3.9362512e-06
72	0xb852bb99	-5.0242616e-05
73	0x3601ae07	1.9323795e-06
74	0x31282dfb	2.4473354e-09
75	0x31663220	3.3497898e-09
76	0x310463f9	1.9265356e-09
77	0x2ffa2c00	4.5506e-10
78	0x305f5db4	8.126009e-10
79	0x3072e97e	8.83709e-10
80	0x302e8980	6.349623e-10
81	0x0003e85d	3.58863e-40
82	0x00000000	0.0
83	0x00000000	0.0
84	0x00000000	0.0
85	0x00000000	0.0
86	0x00000000	0.0
87	0xb2ca2402	-2.353227e-08
88	0xb2012687	-7.517548e-09
89	0x252dbe15	1.506976e-16
90	0x253a3de9	1.6153904e-16
91	0x252a8549	1.4790308e-16
92	0xab4deb74	-7.3157387e-13
93	0x34370ec3	1.7048573e-07
94	0x360e3ffd	2.1196895e-06
95	0x36c70959	5.9317504e-06
96	0x368f4640	4.2699103e-06
97	0xb62f3f45	-2.611386e-06
98	0xb6ee7abe	-7.107242e-06
99	0x36995ff2	4.570925e-06
100	0xb8880dcf	-6.4875574e-05
101	0xb7c7bee3	-2.3811537e-05
102	0x37d09fa4	2.486987e-05
103	0x381a5527	3.6795765e-05
104	0x36d15b43	6.2393096e-06
105	0xb5a5c1ca	-1.2349858e-06
106	0x35cfef0b	1.5492272e-06
107	0x35ebd4bb	1.7570777e-06
108	0x3585f94d	9.981828e-07
109	0x307ff4ab	9.3116154e-10
110	0x000051ae	2.9301e-41
111	0x00000000	0.0
112	0x00000000	0.0
113	0x00000000	0.0
114	0x00000000	0.0
115	0x2ec072f9	8.7515724e-11
116	0x15035d9d	2.6529087e-26
117	0x2ae923da	4.1413991e-13
118	0x36b96b2b	5.5259056e-06
119	0x36e492ea	6.8120326e-06
120	0x362d7ccd	2.5851652e-06
121	0x375e2f0d	1.3243186e-05
122	0xb67f68f5	-3.8059054e-06
123	0x35fb1dad	1.8709594e-06
124	0x37d5a311	2.5467512e-05
125	0x36c6380f	5.907386e-06
126	0x37a7ecac	2.001816e-05
127	0x38a45886	7.836618e-05
128	0x388aea27	6.623967e-05
129	0x383daeda	4.5223955e-05
130	0x37da87f8	2.605094e-05
131	0x3885bb4d	6.376822e-05
132	0x384f993d	4.949536e-05
133	0x374a99ef	1.2075979e-05
134	0x374d9669	1.2253972e-05
135	0x373a102d	1.109023e-05
136	0x364b88fc	3.0329093e-06
137	0x35c838a8	1.491765e-06
138	0x2266a12e	3.125614e-18
139	0x00000000	0.0
140	0x00000000	0.0
141	0x00000000	0.0
142	0x00000000	0.0
143	0x9c1a9a82	-5.115402e-22
144	0xb1ca55af	-5.888715e-09
145	0x363f44f9	2.8501365e-06
146	0x3708ffbb	8.165774e-06
147	0x36b7603d	5.4650286e-06
148	0x375f9009	1.3325372e-05
149	0xb7f470e0	-2.9139628e-05
150	0xb81ff364	-3.813523e-05
151	0x36c0010e	5.7221687e-06
152	0x381f61a6	3.7999496e-05
153	0xb7e99fbf	-2.7850152e-05
154	0xb8c7381e	-9.499512e-05
155	0xb8b79d4b	-8.755418e-05
156	0x37f4e480	2.919347e-05
157	0x3853fe9c	5.0543444e-05
158	0xb8474ebf	-4.7518635e-05
159	0x388b842f	6.6526576e-05
160	0x38eb8115	0.000112297166
161	0x38c35bec	9.3154464e-05
162	0x3826b1a1	3.9742914e-05
163	0x3798aea9	1.8201144e-05
164	0x3653e3e8	3.157411e-06
165	0x2dfa9f1e	2.8492372e-11
166	0x29417a44	4.2960657e-14
167	0x285428fb	1.177725e-14
168	0x00000000	0.0
169	0x00000000	0.0
170	0x3376ad5a	5.7434e-08
171	0x34522653	1.9571716e-07
172	0xb3584b38	-5.035983e-08
173	0x340c3961	1.305939e-07
174	0xb65d0cc5	-3.2939e-06
175	0xb799de78	-1.8342616e-05
176	0x35a8b3c1	1.2569291e-06
177	0xb81a03cb	-3.6719994e-05
178	0xb8077789	-3.2297834e-05
179	0x375a1874	1.2999506e-05
180	0xb7073514	-8.058985e-06
181	0xb8946074	-7.075156e-05
182	0xb938232d	-0.00017560711
183	0xb8877094	-6.458271e-05
184	0xb80ded25	-3.3837878e-05
185	0x37bc6f5b	2.24632e-05
186	0xb7d8fb03	-2.5866093e-05
187	0xb746474c	-1.181832e-05
188	0x388a71ed	6.601573e-05
189	0x389b58f6	7.407546e-05
190	0x386fd701	5.718228e-05
191	0x37b8477f	2.1967802e-05
192	0x3742f74a	1.1620878e-05
193	0x34909eca	2.6937624e-07
194	0x2b89d392	9.793158e-13
195	0x28fb2a66	2.7884985e-14
196	0x00000000	0.0
197	0x00000004	6e-45
198	0x3540070a	7.1535817e-07
199	0x358c3abb	1.0447906e-06
200	0x3544b4b2	7.3278636e-07
201	0xb6576b72	-3.2100038e-06
202	0xb7762e27	-1.4673488e-05
203	0xb720206f	-9.544295e-06
204	0xb6ecb689	-7.054598e-06
205	0xb83e26df	-4.533573e-05
206	0xb8b142f1	-8.4524865e-05
207	0xb8cbcade	-9.717581e-05
208	0xb90b5037	-0.00013285955
209	0xb9579218	-0.00020558422
210	0xb9295569	-0.00016148914
211	0xb8c1d30b	-9.242267e-05
212	0xb8086829	-3.2521933e-05
213	0x3666799c	3.4343457e-06
214	0xb6f04b6a	-7.1613367e-06
215	0xb8ab3296	-8.163338e-05
216	0x379f5e75	1.8998262e-05
217	0x38204c95	3.8218295e-05
218	0x38071750	3.220822e-05
219	0x37786727	1.4805969e-05
220	0x37708271	1.43354855e-05
221	0x33afdf86	8.189731e-08
222	0x3173b429	3.5463563e-09
223	0x245dd4ba	4.8101922e-17
224	0x85b244ce	-1.6764314e-35
225	0x00000004	6e-45
226	0x34e7ea5f	4.319763e-07
227	0x358943b9	1.0227005e-06
228	0x356b3840	8.7626177e-07
229	0xb6e4bf18	-6.8171757e-06
230	0xb80127fb	-3.079323e-05
231	0xb627c247	-2.4998023e-06
232	0xb78b0d37	-1.6576245e-05
233	0xb8a1a12d	-7.7070996e-05
234	0xb925c2f8	-0.00015808258
235	0xb98e89cb	-0.00027187014
236	0xb996330a	-0.00028648257
237	0xb91dc2f9	-0.0001504532
238	0xb913abd8	-0.00014083029
239	0xb909f5f3	-0.00013156961
240	0xb91570cc	-0.00014251767
241	0xb84dbe18	-4.9052847e-05
242	0xb4efc033	-4.4657062e-07
243	0xb85623d1	-5.1054933e-05
244	0xb799d945	-1.8340195e-05
245	0x38444b0e	4.679994e-05
246	0x37551d64	1.2702632e-05
247	0x37a130ae	1.9215364e-05
248	0x378833ab	1.6236523e-05
249	0x35efd295	1.7868175e-06
250	0x332406dd	3.8190468e-08
251	0x000014be	7.441e-42
252	0x00000000	0.0
253	0x00000000	0.0
254	0xa938dcab	-4.1047606e-14
255	0x352c9ac1	6.430019e-07

exp_avg_sq f4 [10, 784]
0	0x00000000	0.0
1	0x00000000	0.0
2	0x26674678	8.023973e-16
3	0x00000000	0.0
4	0x00000000	0.0
5	0x00000000	0.0
6	0x00000000	0.0
7	0x24a26b60	7.04382e-17
8	0x00000000	0.0
9	0x00000000	0.0
10	0x00000000	0.0
11	0x00000000	0.0
12	0x00000000	0.0
13	0x00000000	0.0
14	0x00000000	0.0
15	0x00000000	0.0
16	0x00000000	0.0
17	0x00000000	0.0
18	0x00000000	0.0
19	0x00000000	0.0
20	0x00000000	0.0
21	0x00000000	0.0
22	0x00000000	0.0
23	0x00000000	0.0
24	0x00000000	0.0
25	0x00000000	0.0
26	0x00000000	0.0
27	0x00000000	0.0
28	0x00000000	0.0
29	0x00000000	0.0
30	0x00000000	0.0
31	0x00000000	0.0
32	0x00000000	0.0
33	0x00000000	0.0
34	0x00000000	0.0
35	0x00000000	0.0
36	0x00000000	0.0
37	0x264e16e0	7.150161e-16
38	0x2cb08090	5.016494e-12
39	0x2e939d9a	6.712782e-11
40	0x2fdd5562	4.0260334e-10
41	0x2ec41e90	8.918477e-11
42	0x29c0d6b1	8.563756e-14
43	0x2c0ad363	1.9728323e-12
44	0x2de8a2b5	2.6447603e-11
45	0x2c20718f	2.2800405e-12
46	0x00000000	0.0
47	0x00000000	0.0
48	0x00000000	0.0
49	0x00000000	0.0
50	0x00000000	0.0
51	0x00000000	0.0
52	0x00000000	0.0
53	0x00000000	0.0
54	0x00000000	0.0
55	0x24817c9e	5.615594e-17
56	0x00000000	0.0
57	0x00000000	0.0
58	0x00000000	0.0
59	0x2c440661	2.7856816e-12
60	0x26a70905	1.1590398e-15
61	0x2bf00d07	1.7056641e-12
62	0x2ec95271	9.155066e-11
63	0x2f02398c	1.1843876e-10
64	0x2df02df2	2.7305245e-11
65	0x2edf7741	1.016205e-10
66	0x2f14ca6c	1.3532436e-10
67	0x2fa4c8e4	2.9974168e-10
68	0x3049a114	7.335228e-10
69	0x3087a7fe	9.870289e-10
70	0x309693b2	1.0955914e-09
71	0x308a44f7	1.0060422e-09
72	0x311472c6	2.1602076e-09
73	0x30c17a00	1.4077273e-09
74	0x3087c9ea	9.87993e-10
75	0x30b17f0d	1.2914555e-09
76	0x306500fe	8.3311125e-10
77	0x2fab9c00	3.1215563e-10
78	0x2ed2b864	9.582449e-11
79	0x2da3de21	1.86296e-11
80	0x2d0d2cc7	8.024865e-12
81	0x2bf37c0e	1.7300621e-12
82	0x00000000	0.0
83	0x00000000	0.0
84	0x00000000	0.0
85	0x00000000	0.0
86	0x00000000	0.0
87	0x2d8d393c	1.6055261e-11
88	0x2cb12fe9	5.0359617e-12
89	0x2f5356db	1.9221195e-10
90	0x2fa0901d	2.920623e-10
91	0x2fc76e90	3.6276449e-10
92	0x306e0a40	8.659846e-10
93	0x30b2e718	1.3016885e-09
94	0x3150fed9	3.0412848e-09
95	0x31da80db	6.359284e-09
96	0x32104ddf	8.399609e-09
97	0x326bcda9	1.3725562e-08
98	0x327ee1af	1.483606e-08
99	0x3271b840	1.406994e-08
100	0x328e764b	1.658477e-08
101	0x32840ad3	1.5371745e-08
102	0x32692bb5	1.3572323e-08
103	0x3244ce88	1.1455661e-08
104	0x32060005	7.799831e-09
105	0x319c035e	4.5405804e-09
106	0x30f4be3c	1.7807404e-09
107	0x2fd55c7e	3.8810194e-10
108	0x2f4c8705	1.860166e-10
109	0x2e011498	2.9349495e-11
110	0x2b574629	7.648071e-13
111	0x00000000	0.0
112	0x00000000	0.0
113	0x00000000	0.0
114	0x00000000	0.0
115	0x2ce94c2f	6.6307164e-12
116	0x2c949e39	4.2239792e-12
117	0x2fe01b2a	4.0764664e-10
118	0x30163ee8	5.465908e-10
119	0x30d47345	1.5457792e-09
120	0x318556c8	3.8806753e-09
121	0x3229b846	9.878994e-09
122	0x32a35d56	1.9018142e-08
123	0x3302c32d	3.0445495e-08
124	0x33569bb5	4.9967372e-08
125	0x339c5ca1	7.281165e-08
126	0x33bb67ed	8.72677e-08
127	0x33d84fa6	1.0072772e-07
128	0x33d40b53	9.874079e-08
129	0x33cac416	9.442026e-08
130	0x33b39353	8.362135e-08
131	0x338d4d3a	6.5798716e-08
132	0x33381095	4.285592e-08
133	0x32c508fc	2.2937904e-08
134	0x325a68ad	1.2713071e-08
135	0x31b2b6f4	5.201281e-09
136	0x30a8d328	1.2283623e-09
137	0x2f6c0c4c	2.1468444e-10
138	0x2ec176a9	8.797702e-11
139	0x00000000	0.0
140	0x00000000	0.0
141	0x00000000	0.0
142	0x00000000	0.0
143	0x2db5fbcd	2.068914e-11
144	0x2e7579fa	5.5814887e-11
145	0x3043c5c5	7.1221634e-10
146	0x314d4ad3	2.9873959e-09
147	0x31f5cc5a	7.1536705e-09
148	0x328ee7d1	1.6636394e-08
149	0x330aefa7	3.234859e-08
150	0x336f9e7e	5.579067e-08
151	0x33c4b7cd	9.1603944e-08
152	0x341d2896	1.463653e-07
153	0x34489f09	1.8684308e-07
154	0x3474edff	2.2810853e-07
155	0x3489affe	2.564629e-07
156	0x348e8abd	2.6550507e-07
157	0x3489c35e	2.5660387e-07
158	0x34758635	2.2866227e-07
159	0x3431e48f	1.6567559e-07
160	0x33ee2d3f	1.1090969e-07
161	0x33926f45	6.8188946e-08
162	0x33112cc2	3.380115e-08
163	0x326c877b	1.3767813e-08
164	0x31954376	4.34414e-09
165	0x2f884040	2.4783908e-10
166	0x2ded0116	2.6944263e-11
167	0x2da2b3bb	1.8497084e-11
168	0x00000000	0.0
169	0x00000000	0.0
170	0x29d5d0f8	9.4953505e-14
171	0x2bfa4e06	1.7785224e-12
172	0x2f5c3016	2.0025967e-10
173	0x3149c9b2	2.9364e-09
174	0x320d7143	8.233033e-09
175	0x32927278	1.7048691e-08
176	0x3309d536	3.2091712e-08
177	0x3386acae	6.2712715e-08
178	0x33e189b9	1.05024306e-07
179	0x342f9847	1.6353543e-07
180	0x346cdd26	2.2059666e-07
181	0x349700cb	2.812652e-07
182	0x34b5b553	3.3845808e-07
183	0x34cbbfeb	3.7951335e-07
184	0x34d5aac9	3.9798604e-07
185	0x34c8b5f1	3.7385283e-07
186	0x34af06d7	3.2601267e-07
187	0x3491bf79	2.714767e-07
188	0x34555963	1.986969e-07
189	0x33ffff44	1.19207954e-07
190	0x3391810b	6.7755614e-08
191	0x32f33c0f	2.8316235e-08
192	0x3201d498	7.5571265e-09
193	0x309164e6	1.0578816e-09
194	0x2fb17110	3.2276448e-10
195	0x2ee6b197	1.04907354e-10
196	0x00000000	0.0
197	0x2aa84093	2.9887602e-13
198	0x2d819255	1.4730587e-11
199	0x2e17a103	3.4476432e-11
200	0x2fd70890	3.9114356e-10
201	0x319d7c2b	4.5834176e-09
202	0x324d0d9c	1.1935665e-08
203	0x32e778f5	2.6946944e-08
204	0x336f96cf	5.5783683e-08
205	0x33cfa3af	9.6689625e-08
206	0x34229f48	1.5145372e-07
207	0x346a25c5	2.1806689e-07
208	0x34952b98	2.778513e-07
209	0x34b0cf4d	3.2933386e-07
210	0x34c5283e	3.672339e-07
211	0x34cc3be6	3.8041543e-07
212	0x34d0aa6e	3.8867023e-07
213	0x34d37838	3.9389283e-07
214	0x34c9f1b4	3.761503e-07
215	0x34abc81e	3.1996836e-07
216	0x34887345	2.5415844e-07
217	0x34293530	1.5758701e-07
218	0x33c168ff	9.0063615e-08
219	0x3323c01d	3.812612e-08
220	0x3231e522	1.0354855e-08
221	0x30e43516	1.6604271e-09
222	0x2f833001	2.386287e-10
223	0x2d78539a	1.4115731e-11
224	0x2daaf9e1	1.9437731e-11
225	0x25ca837a	3.5130506e-16
226	0x2d49949f	1.1458528e-11
227	0x2ef7196a	1.1236774e-10
228	0x303e2621	6.917578e-10
229	0x31bf7255	5.5718297e-09
230	0x32953fef	1.7374957e-08
231	0x332a5f7a	3.9668045e-08
232	0x33a3a972	7.621101e-08
233	0x3404287c	1.2308186e-07
234	0x3452713a	1.9598966e-07
235	0x348f5f74	2.6705277e-07
236	0x34aa857a	3.1762085e-07
237	0x34aaf067	3.1839883e-07
238	0x34ae8743	3.2508441e-07
239	0x34aebd7d	3.2547896e-07
240	0x34b3b673	3.3474097e-07
241	0x34b4ca8e	3.367499e-07
242	0x34b5ab30	3.3838433e-07
243	0x34b0672c	3.2857622e-07
244	0x34959c36	2.786707e-07
245	0x344245ee	1.8093098e-07
246	0x33de7fcd	1.03609274e-07
247	0x3346b3bd	4.626394e-08
248	0x323aecef	1.0880497e-08
249	0x3102ce7f	1.903487e-09
250	0x2f928594	2.6652158e-10
251	0x2dbe242c	2.1616563e-11
252	0x00000000	0.0
253	0x00000000	0.0
254	0x2d800480	1.4553914e-11
255	0x30204076	5.8299265e-10
