model_weights.pth (torch, 33171 bytes, 1 tensors)

net.1.weight f4 [10, 784]
000000 a5 1b 03 3d 70 d2 a5 3c 72 c3 80 3c 00 a3 76 bb
       0.032008786 0.020241946 0.015718196 -0.0037633777
000010 90 82 76 3b 05 8c bf bc d8 b2 46 3c fe b3 d6 3c
       0.0037614442 -0.023382196 0.012127601 0.026208874
000020 dc 09 01 bd 78 28 c8 bc 16 a2 f9 3c d7 db 9b bc
       -0.031503543 -0.02443336 0.030472796 -0.019025726
000030 fb e5 58 bd db 57 aa bd 5b 84 9a bd bd 20 92 bc
       -0.0529537 -0.08317538 -0.07544776 -0.017837876
000040 d0 cd 68 3c 73 85 f9 bc 14 2f e2 bb cd c4 0f bd
       0.014209226 -0.030459141 -0.006902585 -0.035099793
000050 ae 48 cf bc f8 7d 4c 3c 0e 7b 2f bc aa 9b c1 bc
       -0.025303211 0.012481205 -0.010710491 -0.023633797
000060 80 b9 9d bc b2 bf d2 3c 39 4a 02 3d 9e 40 e2 3c
       -0.019253492 0.025726173 0.031809065 0.027618703
000070 d1 ec 00 3d 00 8c 67 b8 1a 6d 83 3c 00 d3 73 3c
       0.031475846 -5.5205077e-05 0.016043235 0.014881849
000080 46 c9 87 bd 83 36 79 bd 7e e9 46 bd eb 83 0d be
       -0.06630187 -0.060843002 -0.04856252 -0.13819854
000090 94 49 12 be 37 3f 88 be f7 a7 49 be 25 51 ba 3b
       -0.1428588 -0.2661073 -0.1969298 0.0056859427
0000a0 b8 36 14 3c 61 33 1c bd b0 87 7c be 83 e7 45 be
       0.009046249 -0.038134936 -0.24661136 -0.19326596
0000b0 c7 45 59 be 1b 47 d0 bd d1 dd c4 bd a4 44 14 be
       -0.21218024 -0.10169812 -0.096126206 -0.1447931
0000c0 52 cd 23 be 70 3d cd bd 43 13 3b bd dc 39 25 bd
       -0.15996292 -0.10021484 -0.045672666 -0.040338382
0000d0 c0 f4 4f bc 8a 2f c3 bc 74 fe 74 bc c8 c9 b1 bb
       -0.01269263 -0.02382638 -0.0149532445 -0.0054256655
0000e0 78 c1 d5 3c 64 5e f4 bb 0a 35 7c bd 07 bf 63 bd
       0.02609323 -0.0074575413 -0.06157402 -0.0556021
0000f0 e7 47 cc bc 52 6d de bd 16 62 47 be 3f be 69 be
       -0.02493663 -0.10860695 -0.1947101 -0.2282648
000100 b0 da da be 14 fd ed be ad 90 fe be 1d 27 cb be
       -0.4274497 -0.46482146 -0.49719754 -0.3967828
000110 0e 7b f1 be 24 a0 18 bf 81 0d 43 bf 0b bf 4c bf
       -0.47164196 -0.59619355 -0.7619248 -0.7997901
000120 a7 7a 08 bf 62 4e 55 bf 3f b9 49 bf ac 0d 31 bf
       -0.5331215 -0.8332273 -0.7879829 -0.69161487
000130 3d fb 09 bf 18 23 db be ed 40 c8 be 75 2d 9f be
       -0.53898984 -0.42800212 -0.39112034 -0.31089368
000140 00 a7 49 be 5a 25 2f be 46 78 07 bd 7c 82 2e 3c
       -0.19692612 -0.17104092 -0.033073686 0.010651227
000150 12 49 37 bc d1 2f 0a 3d 17 c0 6e bd 9f 35 86 bd
       -0.011186855 0.033737008 -0.05828866 -0.06553196
000160 85 2d 00 be 48 ad 49 be f4 df cc be f8 84 9f be
       -0.12517364 -0.19695008 -0.40014613 -0.31156135
000170 76 97 61 be 04 9f ec be fe 35 f0 be 84 f5 ab be
       -0.22030434 -0.4621507 -0.46916193 -0.3358575
000180 c9 83 a2 be 2b 2e a3 be 67 bd c1 be 5d 11 10 bf
       -0.3174117 -0.3187116 -0.37839815 -0.56276494
000190 45 ff fc be 76 a5 10 bf 54 df 1e bf d6 c0 e5 be
       -0.49413505 -0.56502473 -0.6205952 -0.44873685
0001a0 1e 4e f9 be 9c 57 06 bf f7 3f 14 bf e6 3d 8d be
       -0.4869241 -0.5247743 -0.579101 -0.27586287
0001b0 5b f8 75 bd 36 c8 3a bc 87 e5 6b bd 20 c2 d7 ba
       -0.060051303 -0.011400273 -0.05759194 -0.0016461052
0001c0 00 16 5e bc af b6 5f bd d3 3f e3 bd b2 62 c7 bd
       -0.01355505 -0.05461758 -0.11096158 -0.097356215
0001d0 57 f5 7b be 81 7c c6 be e1 e7 e1 be 5a 3e ab be
       -0.24605308 -0.38766864 -0.44122222 -0.33446008
0001e0 52 a2 9b be 94 b6 9e be 96 00 b8 be a0 09 be be
       -0.30397278 -0.3099867 -0.35937947 -0.37116718
0001f0 5b 7e 6b be a3 bd 15 be 89 df 5f bd bb 4f 0c bd
       -0.2299742 -0.14623122 -0.05465654 -0.034255724
000200 8e 44 ac bd fa 6c 29 be e5 ca 5d be 4d 70 2e be
       -0.08411513 -0.16545478 -0.2165943 -0.17035027
000210 28 7e fd bd 28 8c 52 be 4f d4 57 be e8 dd 82 bd
       -0.12377578 -0.20561278 -0.21077083 -0.063899815
000220 a9 c2 89 be ba 06 b9 be 76 ce 4b be 64 4d d8 bd
       -0.26906326 -0.36137944 -0.19902977 -0.10561636
000230 72 e1 56 bc 0e 92 78 bc 64 da 2a be df 8f d0 bd
       -0.013115274 -0.015171541 -0.16684872 -0.10183691
000240 bf 11 a9 be 73 8a c4 be e4 0f 7e be f0 22 89 be
       -0.33021352 -0.38386878 -0.2481075 -0.26784468
000250 64 ef 97 be 12 27 a7 be a8 f1 93 be b4 4a 3a be
       -0.29674828 -0.32646996 -0.28895307 -0.1819256
000260 79 94 51 bc ed 30 94 3d fe 76 0f 3e bc 30 e5 3d
       -0.012791746 0.07235894 0.14010236 0.11190936
000270 47 71 9c 3d 93 a3 a6 3d 38 cd 43 3d 8b a3 30 bd
       0.076387934 0.08136668 0.047803134 -0.043124717
000280 a9 33 8b bd 1e 76 08 be f0 d5 2a be 58 23 88 be
       -0.06796963 -0.13326308 -0.16683173 -0.26589465
000290 21 74 ed be fa 74 1e bf a9 33 a7 be e4 29 d4 bd
       -0.46377662 -0.6189724 -0.326566 -0.103595525
0002a0 6b 32 03 3d 65 51 e7 bd 90 8d 1b be 14 1a 8e be
       0.032030504 -0.11294822 -0.1519072 -0.2775427
0002b0 0b ff c9 be a3 da 24 be 64 7d 3b be 4f f1 70 be
       -0.39452395 -0.16099028 -0.18309551 -0.23529552
0002c0 18 ee a8 be 16 d0 b2 be c0 75 59 be 87 53 84 bd
       -0.3299415 -0.34924382 -0.21236324 -0.06461244
0002d0 f8 ec f1 bc 4f 11 6f 3d 22 90 9e 3d fb 53 f5 3d
       -0.02953194 0.058366116 0.07742335 0.11978909
0002e0 ad ae 1f 3e a1 bb 3c 3e b9 60 31 3e 73 fc 12 3e
       0.15593977 0.1843095 0.17322053 0.14354114
0002f0 8a 3e 2d 3d 9f 99 a9 3d e1 8b 63 ba 72 bb 52 be
       0.04229597 0.08281254 -0.00086802064 -0.20579317
000300 6e 0a 20 bf e5 e1 6f bf 02 4f 02 bf 3d 92 17 be
       -0.62515914 -0.9370406 -0.50901806 -0.14801879
000310 86 61 51 bd c3 3a 3a be d3 57 65 be 6a fe e8 be
       -0.051118396 -0.18186478 -0.22396784 -0.45506603
000320 54 bb 13 bf ec 27 dd bd 50 10 81 be ca 96 84 be
       -0.57707715 -0.1079863 -0.25207758 -0.25896293
000330 d4 46 83 be fa b4 0a be fa fd 93 bd a2 ab 18 3b
       -0.25639975 -0.135456 -0.072261766 0.002329566
000340 5c 55 9e 3a 91 5d 88 3d 53 2a 87 3d 06 71 16 3e
       0.0012079882 0.066584714 0.065998696 0.14691553
000350 98 c5 5d 3e 58 67 94 3e a2 32 7a 3e 2d f1 3e 3e
       0.21657407 0.28985095 0.24433377 0.18646689
000360 2a 81 68 3d 5e 85 61 3d 96 0d 07 3d 58 1e cb bd
       0.056763805 0.05505883 0.03297194 -0.09917897
000370 e1 7e 26 bf e6 3d 4b bf 8a fe 12 bf 13 61 4a be
       -0.6503735 -0.79391325 -0.57419646 -0.19763593
000380 fb bb f2 3d f8 4f 89 be 51 1e 96 be 37 1b a7 be
       0.11852261 -0.26818824 -0.29320005 -0.3263795
000390 94 c9 19 bf f8 fb 55 be 3f 8e 8e be 56 26 45 be
       -0.6007321 -0.208969 -0.278429 -0.19252905
0003a0 90 0c 57 be b5 4a df bd 6d d7 d9 bc c8 35 55 bc
       -0.21000886 -0.10902921 -0.02659198 -0.013013311
0003b0 bb 5c ed 3c bd 58 90 bc cc 90 c6 3d 7e 72 75 3e
       0.028974881 -0.017620439 0.096955866 0.23969457
0003c0 15 c6 9c 3e 19 84 a4 3e 94 65 86 3e de fa 17 3e
       0.30619875 0.32132033 0.26249373 0.14841792
0003d0 d8 be a6 3d b6 02 09 3d 88 3c f0 3d e5 4f f2 3b
       0.08141869 0.03344985 0.117302954 0.007394778
0003e0 8e 9c 1e bf 6d cc 74 bf 2d c2 1a bf a8 8a 4d be
       -0.61957633 -0.9562443 -0.6045254 -0.20072424
0003f0 9a 83 24 be 19 c8 94 be 0c 10 db be de bb 94 be
       -0.16065827 -0.29058912 -0.4278568 -0.2904958
